…
      "outputs": [
        {
          "output_type": "stream",
          "name": "stdout",
          "text": [
            "Model: \"model\"\n",
            "_________________________________________________________________\n",
            " Layer (type)                Output Shape              Param #   \n",
            "=================================================================\n",
            " input_1 (InputLayer)        [(None, 48, 48, 3)]       0         \n",
            "                                                                 \n",
            " conv1 (Conv2D)              (None, 24, 24, 32)        864       \n",
            "                                                                 \n",
            " conv1_bn (BatchNormalizatio  (None, 24, 24, 32)       128       \n",
            " n)                                                              \n",
            "                                                                 \n",
            " conv1_relu (ReLU)           (None, 24, 24, 32)        0         \n",
            "                                                                 \n",
            " conv_dw_1 (DepthwiseConv2D)  (None, 24, 24, 32)       288       \n",
            "                                                                 \n",
            " conv_dw_1_bn (BatchNormaliz  (None, 24, 24, 32)       128       \n",
            " ation)                                                          \n",
            "                                                                 \n",
            " conv_dw_1_relu (ReLU)       (None, 24, 24, 32)        0         \n",
            "                                                                 \n",
            " conv_pw_1 (Conv2D)          (None, 24, 24, 64)        2048      \n",
            "                                                                 \n",
            " conv_pw_1_bn (BatchNormaliz  (None, 24, 24, 64)       256       \n",
            " ation)                                                          \n",
            "                                                                 \n",
            " conv_pw_1_relu (ReLU)       (None, 24, 24, 64)        0         \n",
            "                                                                 \n",
            " conv_pad_2 (ZeroPadding2D)  (None, 25, 25, 64)        0         \n",
            "                                                                 \n",
            " conv_dw_2 (DepthwiseConv2D)  (None, 12, 12, 64)       576       \n",
            "                                                                 \n",
            " conv_dw_2_bn (BatchNormaliz  (None, 12, 12, 64)       256       \n",
            " ation)                                                          \n",
            "                                                                 \n",
            " conv_dw_2_relu (ReLU)       (None, 12, 12, 64)        0         \n",
            "                                                                 \n",
            " conv_pw_2 (Conv2D)          (None, 12, 12, 128)       8192      \n",
            "                                                                 \n",
            " conv_pw_2_bn (BatchNormaliz  (None, 12, 12, 128)      512       \n",
            " ation)                                                          \n",
            "                                                                 \n",
            " conv_pw_2_relu (ReLU)       (None, 12, 12, 128)       0         \n",
            "                                                                 \n",
            " conv_dw_3 (DepthwiseConv2D)  (None, 12, 12, 128)      1152      \n",
            "                                                                 \n",
            " conv_dw_3_bn (BatchNormaliz  (None, 12, 12, 128)      512       \n",
            " ation)                                                          \n",
            "                                                                 \n",
            " conv_dw_3_relu (ReLU)       (None, 12, 12, 128)       0         \n",
            "                                                                 \n",
            " conv_pw_3 (Conv2D)          (None, 12, 12, 128)       16384     \n",
            "                                                                 \n",
            " conv_pw_3_bn (BatchNormaliz  (None, 12, 12, 128)      512       \n",
            " ation)                                                          \n",
            "                                                                 \n",
            " conv_pw_3_relu (ReLU)       (None, 12, 12, 128)       0         \n",
            "                                                                 \n",
            " conv_pad_4 (ZeroPadding2D)  (None, 13, 13, 128)       0         \n",
            "                                                                 \n",
            " conv_dw_4 (DepthwiseConv2D)  (None, 6, 6, 128)        1152      \n",
            "                                                                 \n",
            " conv_dw_4_bn (BatchNormaliz  (None, 6, 6, 128)        512       \n",
            " ation)                                                          \n",
            "                                                                 \n",
            " conv_dw_4_relu (ReLU)       (None, 6, 6, 128)         0         \n",
            "                                                                 \n",
            " conv_pw_4 (Conv2D)          (None, 6, 6, 256)         32768     \n",
            "                                                                 \n",
            " conv_pw_4_bn (BatchNormaliz  (None, 6, 6, 256)        1024      \n",
            " ation)                                                          \n",
            "                                                                 \n",
            " conv_pw_4_relu (ReLU)       (None, 6, 6, 256)         0         \n",
            "                                                                 \n",
            " conv_dw_5 (DepthwiseConv2D)  (None, 6, 6, 256)        2304      \n",
            "                                                                 \n",
            " conv_dw_5_bn (BatchNormaliz  (None, 6, 6, 256)        1024      \n",
            " ation)                                                          \n",
            "                                                                 \n",
            " conv_dw_5_relu (ReLU)       (None, 6, 6, 256)         0         \n",
            "                                                                 \n",
            " conv_pw_5 (Conv2D)          (None, 6, 6, 256)         65536     \n",
            "                                                                 \n",
            " conv_pw_5_bn (BatchNormaliz  (None, 6, 6, 256)        1024      \n",
            " ation)                                                          \n",
            "                                                                 \n",
            " conv_pw_5_relu (ReLU)       (None, 6, 6, 256)         0         \n",
            "                                                                 \n",
            " conv_pad_6 (ZeroPadding2D)  (None, 7, 7, 256)         0         \n",
            "                                                                 \n",
            " conv_dw_6 (DepthwiseConv2D)  (None, 3, 3, 256)        2304      \n",
            "                                                                 \n",
            " conv_dw_6_bn (BatchNormaliz  (None, 3, 3, 256)        1024      \n",
            " ation)                                                          \n",
            "                                                                 \n",
            " conv_dw_6_relu (ReLU)       (None, 3, 3, 256)         0         \n",
            "                                                                 \n",
            " conv_pw_6 (Conv2D)          (None, 3, 3, 512)         131072    \n",
            "                                                                 \n",
            " conv_pw_6_bn (BatchNormaliz  (None, 3, 3, 512)        2048      \n",
            " ation)                                                          \n",
            "                                                                 \n",
            " conv_pw_6_relu (ReLU)       (None, 3, 3, 512)         0         \n",
            "                                                                 \n",
            " conv_dw_7 (DepthwiseConv2D)  (None, 3, 3, 512)        4608      \n",
            "                                                                 \n",
            " conv_dw_7_bn (BatchNormaliz  (None, 3, 3, 512)        2048      \n",
            " ation)                                                          \n",
            "                                                                 \n",
            " conv_dw_7_relu (ReLU)       (None, 3, 3, 512)         0         \n",
            "                                                                 \n",
            " conv_pw_7 (Conv2D)          (None, 3, 3, 512)         262144    \n",
            "                                                                 \n",
            " conv_pw_7_bn (BatchNormaliz  (None, 3, 3, 512)        2048      \n",
            " ation)                                                          \n",
            "                                                                 \n",
            " conv_pw_7_relu (ReLU)       (None, 3, 3, 512)         0         \n",
            "                                                                 \n",
            " conv_dw_8 (DepthwiseConv2D)  (None, 3, 3, 512)        4608      \n",
            "                                                                 \n",
            " conv_dw_8_bn (BatchNormaliz  (None, 3, 3, 512)        2048      \n",
            " ation)                                                          \n",
            "                                                                 \n",
            " conv_dw_8_relu (ReLU)       (None, 3, 3, 512)         0         \n",
            "                                                                 \n",
            " conv_pw_8 (Conv2D)          (None, 3, 3, 512)         262144    \n",
            "                                                                 \n",
            " conv_pw_8_bn (BatchNormaliz  (None, 3, 3, 512)        2048      \n",
            " ation)                                                          \n",
            "                                                                 \n",
            " conv_pw_8_relu (ReLU)       (None, 3, 3, 512)         0         \n",
            "                                                                 \n",
            " conv_dw_9 (DepthwiseConv2D)  (None, 3, 3, 512)        4608      \n",
            "                                                                 \n",
            " conv_dw_9_bn (BatchNormaliz  (None, 3, 3, 512)        2048      \n",
            " ation)                                                          \n",
            "                                                                 \n",
            " conv_dw_9_relu (ReLU)       (None, 3, 3, 512)         0         \n",
            "                                                                 \n",
            " conv_pw_9 (Conv2D)          (None, 3, 3, 512)         262144    \n",
            "                                                                 \n",
            " conv_pw_9_bn (BatchNormaliz  (None, 3, 3, 512)        2048      \n",
            " ation)                                                          \n",
            "                                                                 \n",
            " conv_pw_9_relu (ReLU)       (None, 3, 3, 512)         0         \n",
            "                                                                 \n",
            " conv_dw_10 (DepthwiseConv2D  (None, 3, 3, 512)        4608      \n",
            " )                                                               \n",
            "                                                                 \n",
            " conv_dw_10_bn (BatchNormali  (None, 3, 3, 512)        2048      \n",
            " zation)                                                         \n",
            "                                                                 \n",
            " conv_dw_10_relu (ReLU)      (None, 3, 3, 512)         0         \n",
            "                                                                 \n",
            " conv_pw_10 (Conv2D)         (None, 3, 3, 512)         262144    \n",
            "                                                                 \n",
            " conv_pw_10_bn (BatchNormali  (None, 3, 3, 512)        2048      \n",
            " zation)                                                         \n",
            "                                                                 \n",
            " conv_pw_10_relu (ReLU)      (None, 3, 3, 512)         0         \n",
            "                                                                 \n",
            " conv_dw_11 (DepthwiseConv2D  (None, 3, 3, 512)        4608      \n",
            " )                                                               \n",
            "                                                                 \n",
            " conv_dw_11_bn (BatchNormali  (None, 3, 3, 512)        2048      \n",
            " zation)                                                         \n",
            "                                                                 \n",
            " conv_dw_11_relu (ReLU)      (None, 3, 3, 512)         0         \n",
            "                                                                 \n",
            " conv_pw_11 (Conv2D)         (None, 3, 3, 512)         262144    \n",
            "                                                                 \n",
            " conv_pw_11_bn (BatchNormali  (None, 3, 3, 512)        2048      \n",
            " zation)                                                         \n",
            "                                                                 \n",
            " conv_pw_11_relu (ReLU)      (None, 3, 3, 512)         0         \n",
            "                                                                 \n",
            " global_pool (GlobalMaxPooli  (None, 512)              0         \n",
            " ng2D)                                                           \n",
            "                                                                 \n",
            " out_layer (Dense)           (None, 4)                 2052      \n",
            "                                                                 \n",
            "=================================================================\n",
            "Total params: 1,629,892\n",
            "Trainable params: 1,615,172\n",
            "Non-trainable params: 14,720\n",
            "_________________________________________________________________\n"
          ]
…
